model/image_model.tflite (tflite, 637640 bytes, 54 tensors)

sequential/dense_1/MatMul i1 [2, 144] scale=0.0017913057 zero_point=0
0.15405229 -0.046573948 -0.02507828 0.20062624 -0.08240006 0.08240006 -0.093147896 0.089565285
0.17196535 -0.057321783 -0.048365254 -0.051947866 0.0017913057 0.13076532 -0.07523484 0.10747834
0.20241755 -0.1253914 -0.03761742 -0.09673051 0.1880871 0.16121751 0.13613923 -0.068069614
-0.11464357 -0.14151315 -0.07881745 0.05373917 0.008956528 -0.16659144 -0.026869586 0.11822618
0.0626957 0.07881745 -0.068069614 0.13434793 -0.14688706 0.17913057 0.008956528 -0.11643487
-0.044782642 -0.028660892 0.120017484 -0.039408725 -0.102104425 -0.042991336 0.14509577 0.005373917
0.068069614 0.051947866 0.026869586 -0.005373917 0.064487 0.13793054 -0.03761742 -0.15226099
0.14867838 -0.039408725 -0.07523484 -0.0017913057 0.08419137 0.08598267 -0.0017913057 0.16480012
0.17913057 0.19166972 0.14688706 -0.13076532 0.18092188 -0.017913057 -0.01253914 -0.07344353
-0.19883494 -0.20241755 0.11464357 -0.035826113 0.19525233 -0.039408725 -0.17733927 -0.11285226
0.034034807 0.017913057 0.005373917 0.10568704 0.1558436 0.06627831 -0.06986092 -0.007165223
0.055530477 -0.13613923 -0.1253914 -0.08419137 0.14151315 -0.14688706 -0.17196535 0.06986092
-0.04120003 0.17375666 -0.15226099 -0.16300882 -0.093147896 -0.19883494 -0.10926965 -0.120017484
-0.0949392 0.11285226 0.08419137 -0.07523484 0.039408725 -0.030452197 0.057321783 0.057321783
-0.09673051 -0.0035826114 -0.046573948 -0.1898784 0.046573948 0.08419137 -0.07344353 -0.17733927
-0.039408725 -0.1898784 -0.17733927 -0.128974 -0.0035826114 -0.046573948 0.12180879 0.15046968
-0.10031312 -0.120017484 0.18629579 -0.0035826114 0.216748 -0.09673051 -0.005373917 -0.18092188
0.019704362 0.07523484 0.17913057 -0.03761742 0.01253914 -0.030452197 -0.07523484 -0.030452197
0.06627831 0.1253914 0.08419137 -0.14151315 -0.18092188 0.07523484 -0.017913057 0.060904395
-0.044782642 -0.026869586 0.05911309 0.21495669 0.18092188 0.08419137 0.060904395 -0.051947866
-0.07881745 0.0 -0.13613923 -0.22749583 -0.16121751 0.04120003 0.057321783 0.16480012
0.16300882 0.13076532 -0.08777398 0.0626957 0.1845045 -0.17554796 -0.1880871 -0.042991336
0.15405229 0.18271318 -0.17554796 -0.16659144 -0.005373917 0.14867838 -0.064487 0.005373917
0.023286974 -0.1898784 -0.11285226 0.080608755 -0.111060955 0.005373917 -0.028660892 -0.08777398
-0.048365254 0.1558436 -0.14867838 -0.06986092 0.044782642 -0.1558436 -0.005373917 0.14330445
-0.057321783 -0.11285226 -0.17196535 0.21495669 -0.046573948 0.10389573 -0.04120003 0.042991336
-0.0949392 0.030452197 -0.03761742 -0.21316539 0.0 -0.15226099 0.1558436 0.07344353
0.17554796 -0.07702614 0.19883494 0.13793054 0.14509577 0.007165223 0.1898784 -0.21316539
-0.07344353 -0.007165223 0.0 0.07344353 -0.0949392 -0.0626957 0.11464357 0.07344353
-0.01253914 0.0949392 -0.07702614 0.16300882 -0.111060955 0.19704363 0.1576349 -0.06627831
0.02507828 -0.12180879 0.08777398 0.08598267 0.051947866 -0.1880871 0.111060955 0.18271318
0.010747834 0.005373917 0.11643487 -0.08419137 -0.04120003 0.08419137 -0.13972184 0.028660892
00000000: 56e6 f270 d22e cc32 60e0 e5e3 0149 d63c
00000010: 71ba ebca 695a 4cda c0b1 d41e 05a3 f142
00000020: 232c da4b ae64 05bf e7f0 43ea c7e8 5103
00000030: 261d 0ffd 244d ebab 53ea d6ff 2f30 ff5c
00000040: 646b 52b7 65f6 f9d7 918f 40ec 6dea 9dc1
00000050: 130a 033b 5725 d9fc 1fb4 bad1 4fae a027
00000060: e961 aba5 cc91 c3bd cb3f 2fd6 16ef 2020
00000070: cafe e696 1a2f d79d ea96 9db8 fee6 4454
00000080: c8bd 68fe 79ca fd9b 0b2a 64eb 07ef d6ef
00000090: 2546 2fb1 9b2a f622 e7f1 2178 652f 22e3
000000a0: d400 b481 a617 205c 5b49 cf23 679e 97e8
000000b0: 5666 9ea3 fd53 dc03 0d96 c12d c203 f0cf
000000c0: e557 add9 19a9 fd50 e0c1 a078 e63a e918
000000d0: cb11 eb89 00ab 5729 62d5 6f4d 5104 6a89
000000e0: d7fc 0029 cbdd 4029 f935 d55b c26e 58db
000000f0: 0ebc 3130 1d97 3e66 0603 41d1 e92f b210

sequential/dense/Tensordot/MatMul i1 [16, 1280] scale=0.00093003456 zero_point=0
-0.011160415 -0.031621173 -0.04278159 -0.009300346 0.107884005 0.035341315 0.008370311 -0.027901037
0.03255121 0.031621173 -0.03255121 0.048361797 -0.08370311 -0.015810587 -0.050221868 0.0074402764
0.0074402764 0.0027901037 -0.07626283 0.033481244 -0.0781229 -0.03906145 0.016740622 0.031621173
0.026040968 -0.011160415 -0.01023038 -0.0511519 -0.009300346 -0.04092152 0.055802073 -0.041851554
-0.038131416 0.058592178 -0.038131416 0.068822555 -0.039991487 0.035341315 -0.053942002 0.025110934
-0.05301197 0.082773075 -0.06417239 0.056732107 -0.017670657 -0.043711625 0.0753328 0.024180898
-0.07905294 -0.047431763 0.01023038 0.08835328 0.056732107 -0.026040968 -0.0511519 0.045571692
0.03906145 -0.0511519 0.004650173 0.0027901037 -0.05952221 0.006510242 -0.06789252 -0.0074402764
0.06417239 -0.024180898 -0.028831072 0.016740622 -0.057662144 0.026040968 0.031621173 0.018600691
-0.057662144 0.0074402764 -0.04929183 0.024180898 -0.06975259 -0.035341315 0.011160415 -0.026040968
0.038131416 0.04929183 -0.05301197 0.00093003456 -0.07068263 0.013950518 0.06510242 0.031621173
0.060452245 0.035341315 -0.08184304 0.060452245 0.06138228 0.06138228 -0.041851554 -0.019530725
0.023250863 -0.034411278 -0.043711625 -0.047431763 -0.04464166 0.017670657 0.05487204 0.06138228
-0.0511519 -0.0074402764 -0.03627135 0.053942002 -0.033481244 0.052081935 0.099513695 0.0055802073
0.015810587 -0.019530725 0.014880553 0.029761106 0.0725427 0.02232083 -0.05487204 0.04092152
-0.05301197 0.06138228 0.0511519 0.052081935 0.0 0.026971001 0.00093003456 0.04092152
0.0037201382 -0.0018600691 0.041851554 0.026040968 0.029761106 -0.0037201382 0.043711625 0.06510242
0.050221868 0.021390796 0.056732107 0.068822555 0.058592178 -0.021390796 -0.03906145 -0.024180898
0.04278159 0.00093003456 -0.07068263 0.035341315 0.052081935 0.046501726 0.05301197 -0.004650173
-0.09393349 0.0037201382 -0.028831072 0.045571692 -0.03255121 -0.06975259 0.021390796 -0.004650173
0.026040968 0.013020484 0.013020484 -0.0725427 0.043711625 0.025110934 -0.011160415 -0.025110934
-0.043711625 0.014880553 -0.01023038 0.03627135 -0.03627135 0.025110934 0.055802073 -0.004650173
0.01023038 0.048361797 0.08556318 -0.013020484 -0.037201382 -0.041851554 -0.058592178 0.06417239
0.04092152 0.0511519 0.038131416 0.01023038 0.0037201382 -0.03906145 0.038131416 0.03069114
-0.039991487 0.041851554 -0.043711625 -0.023250863 0.050221868 -0.050221868 0.066032454 -0.02046076
-0.043711625 0.06510242 0.014880553 0.0511519 0.037201382 0.004650173 -0.048361797 -0.06417239
-0.0027901037 0.021390796 -0.04929183 0.07905294 0.025110934 -0.056732107 -0.018600691 0.052081935
-0.0027901037 -0.0018600691 -0.0511519 0.029761106 0.009300346 0.013020484 -0.039991487 -0.056732107
0.004650173 -0.031621173 -0.014880553 -0.016740622 -0.048361797 0.02232083 -0.062312316 -0.039991487
-0.021390796 -0.033481244 -0.029761106 0.006510242 -0.004650173 0.06696249 0.004650173 0.05487204
0.0018600691 -0.047431763 -0.050221868 -0.043711625 -0.056732107 0.012090449 -0.035341315 -0.039991487
0.0055802073 -0.039991487 -0.012090449 0.013950518 0.02232083 0.034411278 0.07998297 -0.068822555
00000000: f4de d2f6 7426 09e2 2322 dd34 a6ef ca08
00000010: 0803 ae24 acd6 1222 1cf4 f5c9 f6d4 3cd3
00000020: d73f d74a d526 c61b c759 bb3d edd1 511a
00000030: abcd 0b5f 3de4 c931 2ac9 0503 c007 b7f8
00000040: 45e6 e112 c21c 2214 c208 cb1a b5da 0ce4
00000050: 2935 c701 b40f 4622 4126 a841 4242 d3eb
00000060: 19db d1cd d013 3b42 c9f8 d93a dc38 6b06
00000070: 11eb 1020 4e18 c52c c742 3738 001d 012c
00000080: 04fe 2d1c 20fc 2f46 3617 3d4a 3fe9 d6e6
00000090: 2e01 b426 3832 39fb 9b04 e131 ddb5 17fb
000000a0: 1c0e 0eb2 2f1b f4e5 d110 f527 d91b 3cfb
000000b0: 0b34 5cf2 d8d3 c145 2c37 290b 04d6 2921
000000c0: d52d d1e7 36ca 47ea d146 1037 2805 ccbb
000000d0: fd17 cb55 1bc3 ec38 fdfe c920 0a0e d5c3
000000e0: 05de f0ee cc18 bdd5 e9dc e007 fb48 053b
000000f0: 02cd cad1 c30d dad5 06d5 f30f 1825 56b6

sequential/model/Conv_1/Conv2D i1 [1280, 1, 1, 112]
48 -7 10 9 -12 -11 39 30
49 27 -8 93 -18 6 -17 -27
-40 -6 10 -38 -46 -56 -3 -7
-28 60 73 -21 62 59 -7 25
-21 -60 54 43 -29 43 8 19
37 4 -84 -38 -1 122 -16 0
19 0 22 -16 11 22 50 30
53 22 -92 36 37 -9 3 3
12 -91 -12 -18 -68 43 22 29
15 74 15 52 102 -7 31 -41
64 -12 -10 -78 45 -33 -44 26
21 25 -29 -30 36 51 -86 63
-59 55 -90 -45 0 -78 -53 -9
-6 53 -63 -12 -73 127 -13 60
40 21 -100 73 -20 40 34 84
-50 -21 87 -8 23 42 55 23
10 18 -54 -12 -50 -13 15 -54
14 8 46 -25 -79 -127 46 -45
88 34 8 -42 51 2 54 8
32 -7 -54 106 87 86 117 -42
23 0 -30 -72 -59 -18 41 75
59 -15 33 -26 35 -87 -77 -76
-103 -4 25 -22 58 -4 34 9
-7 20 114 35 -29 53 19 -40
5 24 -50 -6 -37 -26 60 25
118 98 36 -23 -38 107 -63 -19
-71 39 67 -28 19 20 -72 -16
14 36 -63 -18 -16 -7 12 49
21 -32 -20 -52 -47 22 46 7
-37 -24 28 12 26 8 -23 -65
-16 32 72 10 46 21 10 2
-53 12 -59 -1 8 64 3 -101
00000000: 30f9 0a09 f4f5 271e 311b f85d ee06 efe5
00000010: d8fa 0ada d2c8 fdf9 e43c 49eb 3e3b f919
00000020: ebc4 362b e32b 0813 2504 acda ff7a f000
00000030: 1300 16f0 0b16 321e 3516 a424 25f7 0303
00000040: 0ca5 f4ee bc2b 161d 0f4a 0f34 66f9 1fd7
00000050: 40f4 f6b2 2ddf d41a 1519 e3e2 2433 aa3f
00000060: c537 a6d3 00b2 cbf7 fa35 c1f4 b77f f33c
00000070: 2815 9c49 ec28 2254 ceeb 57f8 172a 3717
00000080: 0a12 caf4 cef3 0fca 0e08 2ee7 b181 2ed3
00000090: 5822 08d6 3302 3608 20f9 ca6a 5756 75d6
000000a0: 1700 e2b8 c5ee 294b 3bf1 21e6 23a9 b3b4
000000b0: 99fc 19ea 3afc 2209 f914 7223 e335 13d8
000000c0: 0518 cefa dbe6 3c19 7662 24e9 da6b c1ed
000000d0: b927 43e4 1314 b8f0 0e24 c1ee f0f9 0c31
000000e0: 15e0 eccc d116 2e07 dbe8 1c0c 1a08 e9bf
000000f0: f020 480a 2e15 0a02 cb0c c5ff 0840 039b

sequential/model/block_16_project/Conv2D i1 [112, 1, 1, 336]
-47 69 6 29 -20 0 -33 34
51 -31 4 -3 90 -65 66 55
21 -19 -14 28 -53 22 -8 -23
64 36 38 -30 62 -28 -33 71
30 -23 4 39 36 14 3 -2
-89 -8 -47 7 53 13 63 -77
57 37 -8 19 -17 -5 -15 35
11 -59 58 -7 -108 -10 -63 60
-25 58 3 -51 -19 67 10 94
-44 -11 -77 -66 87 -12 20 41
-58 -79 -25 1 -56 66 -9 -19
-93 -42 -76 12 -25 83 -16 15
63 -3 -17 2 23 21 19 -15
5 -20 -31 54 66 43 18 21
-2 -8 -79 -20 -24 -15 -1 27
0 -16 -48 77 -39 -4 14 0
43 66 -92 33 36 -9 22 17
-23 22 -8 -45 -29 -62 48 52
-14 21 9 -4 47 -18 5 35
11 -31 49 -74 -44 -22 -15 -4
0 -51 33 -73 -59 -38 19 68
47 -27 12 -25 -71 69 -37 25
-37 -53 23 -10 23 70 48 -85
-79 -51 -30 -70 -9 5 34 13
-71 29 46 25 -7 41 -36 -29
28 -47 30 -29 -20 -13 -2 -66
-8 -59 -58 -2 87 -37 -6 -127
12 50 82 -53 -55 49 48 27
14 14 78 32 13 -32 9 -16
14 -35 2 37 19 22 31 -75
42 28 -34 -30 -89 -9 -72 -104
-50 1 -74 2 -9 7 -29 21
00000000: d145 061d ec00 df22 33e1 04fd 5abf 4237
00000010: 15ed f21c cb16 f8e9 4024 26e2 3ee4 df47
00000020: 1ee9 0427 240e 03fe a7f8 d107 350d 3fb3
00000030: 3925 f813 effb f123 0bc5 3af9 94f6 c13c
00000040: e73a 03cd ed43 0a5e d4f5 b3be 57f4 1429
00000050: c6b1 e701 c842 f7ed a3d6 b40c e753 f00f
00000060: 3ffd ef02 1715 13f1 05ec e136 422b 1215
00000070: fef8 b1ec e8f1 ff1b 00f0 d04d d9fc 0e00
00000080: 2b42 a421 24f7 1611 e916 f8d3 e3c2 3034
00000090: f215 09fc 2fee 0523 0be1 31b6 d4ea f1fc
000000a0: 00cd 21b7 c5da 1344 2fe5 0ce7 b945 db19
000000b0: dbcb 17f6 1746 30ab b1cd e2ba f705 220d
000000c0: b91d 2e19 f929 dce3 1cd1 1ee3 ecf3 febe
000000d0: f8c5 c6fe 57db fa81 0c32 52cb c931 301b
000000e0: 0e0e 4e20 0de0 09f0 0edd 0225 1316 1fb5
000000f0: 2a1c dee2 a7f7 b898 ce01 b602 f707 e315

sequential/model/block_16_depthwise_BN/FusedBatchNormV3;sequential/model/block_16_depthwise/depthwise i1 [1, 3, 3, 336]
-65 2 -56 -117 -127 14 -60 6
27 -54 20 31 -127 48 -26 8
-79 -56 -70 24 -72 -127 30 22
28 -94 59 -127 38 -17 -122 -42
-60 -127 120 -127 38 -8 42 8
42 -33 0 -90 -10 -123 -122 -110
32 -20 28 35 42 127 -42 -55
22 -22 11 -120 -30 -104 26 -111
35 -127 -64 5 -100 27 -32 15
-62 -113 -76 -75 48 32 30 44
-84 -118 40 -75 20 76 -46 43
-22 -24 73 95 -70 -65 -127 44
-115 31 37 28 20 -127 -63 -114
-127 44 -8 -55 38 -51 68 40
5 43 -34 26 -117 45 21 31
34 20 20 16 -3 -73 51 21
-29 20 -13 -38 -62 127 -117 -67
-39 -90 -122 -45 12 -95 39 55
-45 57 -46 -94 -66 -114 -89 -3
-88 -7 -16 27 34 22 -86 25
-104 49 -59 -78 62 -101 -55 -127
32 -2 127 83 54 9 -62 -51
-97 -12 -51 52 -84 77 -127 -3
-24 -26 48 -109 39 -71 -120 -99
-89 -121 67 -127 10 25 -85 31
-44 -85 -75 41 11 -127 -86 41
-79 18 -79 -106 27 22 54 2
-94 38 -83 16 -126 -76 -69 -28
-127 -127 39 -57 -97 -50 -90 -124
-11 33 2 -127 -43 40 -6 -97
23 39 -49 33 -34 30 -79 97
30 62 55 -73 65 -36 -75 12
00000000: bf02 c88b 810e c406 1bca 141f 8130 e608
00000010: b1c8 ba18 b881 1e16 1ca2 3b81 26ef 86d6
00000020: c481 7881 26f8 2a08 2adf 00a6 f685 8692
00000030: 20ec 1c23 2a7f d6c9 16ea 0b88 e298 1a91
00000040: 2381 c005 9c1b e00f c28f b4b5 3020 1e2c
00000050: ac8a 28b5 144c d22b eae8 495f babf 812c
00000060: 8d1f 251c 1481 c18e 812c f8c9 26cd 4428
00000070: 052b de1a 8b2d 151f 2214 1410 fdb7 3315
00000080: e314 f3da c27f 8bbd d9a6 86d3 0ca1 2737
00000090: d339 d2a2 be8e a7fd a8f9 f01b 2216 aa19
000000a0: 9831 c5b2 3e9b c981 20fe 7f53 3609 c2cd
000000b0: 9ff4 cd34 ac4d 81fd e8e6 3093 27b9 889d
000000c0: a787 4381 0a19 ab1f d4ab b529 0b81 aa29
000000d0: b112 b196 1b16 3602 a226 ad10 82b4 bbe4
000000e0: 8181 27c7 9fce a684 f521 0281 d528 fa9f
000000f0: 1727 cf21 de1e b161 1e3e 37b7 41dc b50c

sequential/model/block_16_expand/Conv2D i1 [336, 1, 1, 56]
-127 -29 -107 13 29 -17 43 -42
53 -58 39 50 -39 -56 -22 -9
13 -97 18 -46 68 -71 -76 -24
-32 71 -29 125 12 84 29 107
-65 -74 75 117 15 -75 -66 24
-77 -38 -49 0 -59 -76 25 -78
-22 6 -19 31 -35 -55 -4 100
36 26 -42 42 -127 -14 87 22
-44 39 32 37 41 -37 -98 -24
-36 -25 -26 16 -11 -5 24 111
93 -44 7 32 48 -90 -42 2
-10 20 16 39 -48 41 -4 100
25 32 -28 -10 -18 -53 -15 -14
2 -56 -38 24 84 -13 59 -42
18 -8 -4 68 -29 13 38 0
127 -6 24 56 22 -18 19 9
-9 -4 -28 -64 -33 36 -54 18
1 22 -12 17 -29 44 -22 50
3 9 -52 18 16 -17 -42 -14
28 3 -47 63 10 -39 24 -14
-75 11 32 25 -16 -8 2 -98
-17 30 -32 -41 -9 -1 -53 39
-17 -15 38 -74 70 127 40 -34
26 -7 -27 75 -50 39 66 66
87 27 -93 -64 -31 -47 -50 21
-88 -36 -64 -15 -33 5 41 25
77 42 22 12 42 -30 36 45
-6 -98 -30 -3 12 40 11 41
-48 14 -6 -13 15 -19 8 -87
127 -78 -57 6 12 114 36 -22
38 -28 44 -12 -34 22 1 27
-93 33 -52 65 8 101 8 17
00000000: 81e3 950d 1def 2bd6 35c6 2732 d9c8 eaf7
00000010: 0d9f 12d2 44b9 b4e8 e047 e37d 0c54 1d6b
00000020: bfb6 4b75 0fb5 be18 b3da cf00 c5b4 19b2
00000030: ea06 ed1f ddc9 fc64 241a d62a 81f2 5716
00000040: d427 2025 29db 9ee8 dce7 e610 f5fb 186f
00000050: 5dd4 0720 30a6 d602 f614 1027 d029 fc64
00000060: 1920 e4f6 eecb f1f2 02c8 da18 54f3 3bd6
00000070: 12f8 fc44 e30d 2600 7ffa 1838 16ee 1309
00000080: f7fc e4c0 df24 ca12 0116 f411 e32c ea32
00000090: 0309 cc12 10ef d6f2 1c03 d13f 0ad9 18f2
000000a0: b50b 2019 f0f8 029e ef1e e0d7 f7ff cb27
000000b0: eff1 26b6 467f 28de 1af9 e54b ce27 4242
000000c0: 571b a3c0 e1d1 ce15 a8dc c0f1 df05 2919
000000d0: 4d2a 160c 2ae2 242d fa9e e2fd 0c28 0b29
000000e0: d00e faf3 0fed 08a9 7fb2 c706 0c72 24ea
000000f0: 26e4 2cf4 de16 011b a321 cc41 0865 0811

sequential/model/block_15_project/Conv2D i1 [56, 1, 1, 336]
81 26 -37 -58 -72 12 -95 -16
110 111 -47 -87 50 24 21 38
-42 -13 55 -70 53 46 -108 78
49 30 23 3 -31 -18 66 59
24 40 27 22 30 33 48 34
-42 34 -6 15 6 -22 -21 49
-45 -57 46 -29 -2 -1 -8 -12
-100 38 -69 -50 -51 34 -74 84
-78 26 -18 -88 -49 -1 -4 -78
-30 63 -19 17 72 15 20 23
28 -28 62 -108 -5 35 15 8
9 28 61 26 21 -19 -41 -36
1 58 62 -3 -27 -82 -4 61
18 -32 75 -29 -95 0 63 49
42 11 12 -6 -18 54 -12 -4
58 -24 56 -33 -6 -5 65 -13
-25 62 65 9 14 -37 14 23
-23 -23 -3 18 1 100 -17 -23
-9 19 120 41 -17 -5 -35 61
-68 62 6 -25 32 8 -81 -7
41 -30 -127 22 58 -23 -21 -6
4 10 19 -22 -26 -19 7 -11
20 -11 -14 56 85 -46 -81 28
16 -79 17 -59 -19 -40 14 12
53 -26 -45 6 -47 -12 -18 26
-51 -11 -23 67 13 -53 -39 12
36 72 8 2 -45 -28 10 61
13 9 52 16 -71 14 1 64
19 -40 48 -44 -23 53 10 -63
5 13 70 -1 -50 36 -50 6
-12 33 48 51 -51 116 45 6
12 -121 7 95 13 81 10 -29
00000000: 511a dbc6 b80c a1f0 6e6f d1a9 3218 1526
00000010: d6f3 37ba 352e 944e 311e 1703 e1ee 423b
00000020: 1828 1b16 1e21 3022 d622 fa0f 06ea eb31
00000030: d3c7 2ee3 feff f8f4 9c26 bbce cd22 b654
00000040: b21a eea8 cfff fcb2 e23f ed11 480f 1417
00000050: 1ce4 3e94 fb23 0f08 091c 3d1a 15ed d7dc
00000060: 013a 3efd e5ae fc3d 12e0 4be3 a100 3f31
00000070: 2a0b 0cfa ee36 f4fc 3ae8 38df fafb 41f3
00000080: e73e 4109 0edb 0e17 e9e9 fd12 0164 efe9
00000090: f713 7829 effb dd3d bc3e 06e7 2008 aff9
000000a0: 29e2 8116 3ae9 ebfa 040a 13ea e6ed 07f5
000000b0: 14f5 f238 55d2 af1c 10b1 11c5 edd8 0e0c
000000c0: 35e6 d306 d1f4 ee1a cdf5 e943 0dcb d90c
000000d0: 2448 0802 d3e4 0a3d 0d09 3410 b90e 0140
000000e0: 13d8 30d4 e935 0ac1 050d 46ff ce24 ce06
000000f0: f421 3033 cd74 2d06 0c87 075f 0d51 0ae3

sequential/model/block_15_depthwise_BN/FusedBatchNormV3;sequential/model/block_15_depthwise/depthwise;sequential/model/block_16_depthwise/depthwise i1 [1, 3, 3, 336]
-13 57 -71 -20 -43 53 -59 -65
-127 19 53 9 -18 -72 111 -17
-82 -51 35 -55 62 15 -127 -8
89 6 -76 -116 24 36 -13 45
-97 -127 60 121 -29 48 27 -56
-3 -7 45 78 38 -12 93 -2
-7 -6 22 48 7 -3 15 -64
-57 8 40 -99 -22 -112 44 -45
22 46 -10 9 1 8 -57 -74
-8 -33 12 46 -99 13 -36 100
12 32 44 104 59 -71 -59 -20
2 6 -125 -98 -65 75 15 -18
-55 127 0 -12 -80 2 27 -77
32 94 -124 -19 -127 -50 28 -15
58 -12 113 73 10 -117 22 9
-27 45 -14 -9 -8 26 66 13
-122 -17 17 0 89 -3 -47 12
14 -39 -65 -27 12 -64 -36 82
19 -47 19 -127 16 -72 -75 -90
-21 -11 -12 21 -127 90 55 -116
24 24 1 45 -97 -127 88 25
21 -9 13 127 72 -24 88 127
16 -11 64 -6 54 -74 -15 14
-127 16 65 57 -35 27 -4 -25
-113 5 -127 -15 -10 -78 -72 78
-10 -3 99 -51 -127 -75 37 -71
13 15 -1 102 -17 -120 56 -109
-66 4 79 50 72 104 4 -25
84 -19 -127 71 25 -39 69 -52
-55 78 67 -21 -79 -25 50 -72
-73 10 -20 -57 -3 -4 16 14
7 -12 58 3 -60 -29 -53 -79
00000000: f339 b9ec d535 c5bf 8113 3509 eeb8 6fef
00000010: aecd 23c9 3e0f 81f8 5906 b48c 1824 f32d
00000020: 9f81 3c79 e330 1bc8 fdf9 2d4e 26f4 5dfe
00000030: f9fa 1630 07fd 0fc0 c708 289d ea90 2cd3
00000040: 162e f609 0108 c7b6 f8df 0c2e 9d0d dc64
00000050: 0c20 2c68 3bb9 c5ec 0206 839e bf4b 0fee
00000060: c97f 00f4 b002 1bb3 205e 84ed 81ce 1cf1
00000070: 3af4 7149 0a8b 1609 e52d f2f7 f81a 420d
00000080: 86ef 1100 59fd d10c 0ed9 bfe5 0cc0 dc52
00000090: 13d1 1381 10b8 b5a6 ebf5 f415 815a 378c
000000a0: 1818 012d 9f81 5819 15f7 0d7f 48e8 587f
000000b0: 10f5 40fa 36b6 f10e 8110 4139 dd1b fce7
000000c0: 8f05 81f1 f6b2 b84e f6fd 63cd 81b5 25b9
000000d0: 0d0f ff66 ef88 3893 be04 4f32 4868 04e7
000000e0: 54ed 8147 19d9 45cc c94e 43eb b1e7 32b8
000000f0: b70a ecc7 fdfc 100e 07f4 3a03 c4e3 cbb1

sequential/model/block_15_expand/Conv2D i1 [336, 1, 1, 56]
55 37 -58 -1 53 -49 33 -10
-98 78 38 12 -6 12 -32 -30
22 9 -88 -63 -39 0 -42 -43
127 9 45 -17 21 -26 111 95
-105 7 -67 24 95 57 -52 110
101 -64 3 6 51 -76 12 89
-21 37 70 -23 86 78 -8 -61
-8 -36 -112 -23 -61 -12 26 -4
31 6 -8 -18 -8 -13 -6 -84
55 -35 34 75 -33 17 58 -127
69 -58 -8 -21 -88 82 -36 20
73 83 43 -11 8 -23 -8 -122
15 -43 -16 -19 16 62 -74 50
5 2 -30 16 -99 22 -67 -121
25 -30 -97 40 116 86 77 -12
76 50 3 -27 70 84 13 91
-15 -17 16 72 -57 33 27 -26
58 90 85 -30 0 39 -6 23
-76 2 -65 -20 -105 127 100 66
37 -15 -52 -1 34 13 -19 67
-62 105 8 -29 70 41 -5 -108
-12 47 34 65 -3 26 8 -85
-62 -82 31 64 -69 -36 -11 0
-104 15 -59 -9 52 30 14 -4
127 -66 -24 15 61 -24 -54 91
29 -44 39 -2 -6 3 -127 99
2 21 37 17 -61 -31 1 -27
52 -15 -59 44 -31 -27 3 -25
5 16 -26 -14 50 19 -45 31
5 -58 -65 58 32 -70 35 -55
99 -13 -30 -13 -18 17 11 47
34 -46 -7 -100 -9 21 60 -64
00000000: 3725 c6ff 35cf 21f6 9e4e 260c fa0c e0e2
00000010: 1609 a8c1 d900 d6d5 7f09 2def 15e6 6f5f
00000020: 9707 bd18 5f39 cc6e 65c0 0306 33b4 0c59
00000030: eb25 46e9 564e f8c3 f8dc 90e9 c3f4 1afc
00000040: 1f06 f8ee f8f3 faac 37dd 224b df11 3a81
00000050: 45c6 f8eb a852 dc14 4953 2bf5 08e9 f886
00000060: 0fd5 f0ed 103e b632 0502 e210 9d16 bd87
00000070: 19e2 9f28 7456 4df4 4c32 03e5 4654 0d5b
00000080: f1ef 1048 c721 1be6 3a5a 55e2 0027 fa17
00000090: b402 bfec 977f 6442 25f1 ccff 220d ed43
000000a0: c269 08e3 4629 fb94 f42f 2241 fd1a 08ab
000000b0: c2ae 1f40 bbdc f500 980f c5f7 341e 0efc
000000c0: 7fbe e80f 3de8 ca5b 1dd4 27fe fa03 8163
000000d0: 0215 2511 c3e1 01e5 34f1 c52c e1e5 03e7
000000e0: 0510 e6f2 3213 d31f 05c6 bf3a 20ba 23c9
000000f0: 63f3 e2f3 ee11 0b2f 22d2 f99c f715 3cc0

sequential/model/block_14_project/Conv2D i1 [56, 1, 1, 336]
32 18 16 31 -8 47 -74 69
-57 1 16 46 -17 -44 -12 9
18 -11 62 -34 6 62 -42 -20
57 -4 43 -30 104 61 86 31
-42 58 16 -49 -61 -26 -63 38
-33 -63 70 -55 1 -25 3 -34
34 90 41 89 19 40 118 31
13 -22 43 -56 -77 21 -15 -37
-65 -37 5 -76 -11 87 -1 -24
61 28 9 -61 -73 -43 -5 -56
38 32 -84 -78 34 -3 17 -42
37 13 -29 -2 -39 -19 -19 -18
-52 -5 16 -48 35 -62 30 13
57 47 -16 -1 -31 7 25 -20
38 -55 -28 -88 -28 -38 -16 85
40 19 10 -18 71 -62 -20 -74
-11 -14 20 -54 -36 32 -29 41
-85 -32 49 11 -19 -46 94 53
60 -14 53 -6 0 9 59 -57
18 -21 23 27 -51 11 102 -15
24 -37 -31 -19 16 6 68 -8
18 -2 44 -83 -31 -57 -2 -69
-75 -35 -32 -35 42 -27 19 -48
55 25 14 -32 -2 -127 -11 15
-3 -19 -54 41 -51 -21 36 13
-13 -51 18 -48 5 11 16 -12
5 9 -47 -84 40 -31 -96 22
-54 -52 1 60 71 -12 29 -32
-29 10 -74 -41 28 -33 63 -19
-104 -12 50 -3 20 -55 -9 -21
14 -43 83 18 61 34 -1 -54
-29 71 23 4 10 79 -26 67
00000000: 2012 101f f82f b645 c701 102e efd4 f409
00000010: 12f5 3ede 063e d6ec 39fc 2be2 683d 561f
00000020: d63a 10cf c3e6 c126 dfc1 46c9 01e7 03de
00000030: 225a 2959 1328 761f 0dea 2bc8 b315 f1db
00000040: bfdb 05b4 f557 ffe8 3d1c 09c3 b7d5 fbc8
00000050: 2620 acb2 22fd 11d6 250d e3fe d9ed edee
00000060: ccfb 10d0 23c2 1e0d 392f f0ff e107 19ec
00000070: 26c9 e4a8 e4da f055 2813 0aee 47c2 ecb6
00000080: f5f2 14ca dc20 e329 abe0 310b edd2 5e35
00000090: 3cf2 35fa 0009 3bc7 12eb 171b cd0b 66f1
000000a0: 18db e1ed 1006 44f8 12fe 2cad e1c7 febb
000000b0: b5dd e0dd 2ae5 13d0 3719 0ee0 fe81 f50f
000000c0: fded ca29 cdeb 240d f3cd 12d0 050b 10f4
000000d0: 0509 d1ac 28e1 a016 cacc 013c 47f4 1de0
000000e0: e30a b6d7 1cdf 3fed 98f4 32fd 14c9 f7eb
000000f0: 0ed5 5312 3d22 ffca e347 1704 0a4f e643

sequential/model/block_14_depthwise_BN/FusedBatchNormV3;sequential/model/block_14_depthwise/depthwise;sequential/model/block_16_depthwise/depthwise i1 [1, 3, 3, 336]
31 7 61 -112 32 7 -127 -7
-55 -15 -121 -127 15 -24 72 -10
46 -5 -75 -51 62 17 -41 -3
-108 -75 -60 6 44 -91 76 -127
-13 -113 -103 -84 -127 -127 42 -95
17 -9 -97 -13 -48 -10 -41 -55
5 -5 -19 -19 -49 8 -4 15
2 4 -124 59 -90 26 -37 -2
-3 -19 -127 -33 41 7 14 -68
-98 20 -65 57 37 99 9 127
40 -122 39 26 -87 -115 -3 -21
71 -39 -32 -2 -114 82 -12 81
-71 14 -114 -127 -17 72 -26 -22
102 38 -28 -46 -56 -64 34 33
127 17 -13 -127 -127 -7 -64 30
-3 33 -62 99 -21 80 -14 46
19 -4 -18 -127 40 -19 6 -34
75 30 -17 -34 -12 11 6 -22
-58 -28 -7 25 69 -127 80 47
34 -87 -6 -20 -27 -10 -1 -16
-14 -83 28 3 -36 16 23 9
4 28 -40 -15 66 7 -123 114
-54 -127 51 -88 -48 31 -4 -39
127 42 -65 42 -127 -74 -64 85
29 -26 -20 24 -36 32 31 117
19 47 -8 -40 62 109 -61 -124
31 -18 -127 0 -3 18 -24 -15
-12 7 -65 -34 -80 28 -4 -127
-30 7 -24 -127 -17 -10 -127 27
-127 -21 -83 43 -19 0 28 28
-31 -62 -5 3 53 -4 17 -9
63 -28 -38 72 61 102 -105 -127
00000000: 1f07 3d90 2007 81f9 c9f1 8781 0fe8 48f6
00000010: 2efb b5cd 3e11 d7fd 94b5 c406 2ca5 4c81
00000020: f38f 99ac 8181 2aa1 11f7 9ff3 d0f6 d7c9
00000030: 05fb eded cf08 fc0f 0204 843b a61a dbfe
00000040: fded 81df 2907 0ebc 9e14 bf39 2563 097f
00000050: 2886 271a a98d fdeb 47d9 e0fe 8e52 f451
00000060: b90e 8e81 ef48 e6ea 6626 e4d2 c8c0 2221
00000070: 7f11 f381 81f9 c01e fd21 c263 eb50 f22e
00000080: 13fc ee81 28ed 06de 4b1e efde f40b 06ea
00000090: c6e4 f919 4581 502f 22a9 faec e5f6 fff0
000000a0: f2ad 1c03 dc10 1709 041c d8f1 4207 8572
000000b0: ca81 33a8 d01f fcd9 7f2a bf2a 81b6 c055
000000c0: 1de6 ec18 dc20 1f75 132f f8d8 3e6d c384
000000d0: 1fee 8100 fd12 e8f1 f407 bfde b01c fc81
000000e0: e207 e881 eff6 811b 81eb ad2b ed00 1c1c
000000f0: e1c2 fb03 35fc 11f7 3fe4 da48 3d66 9781

sequential/model/block_14_expand/Conv2D i1 [336, 1, 1, 56]
77 -35 77 2 93 5 43 47
-85 -31 -61 -69 -58 8 -29 88
-35 51 -54 14 8 -69 -20 -78
48 33 62 54 -25 -95 79 127
-29 -56 -90 22 24 -26 29 52
-66 -87 -87 -14 31 -72 -58 45
38 -64 20 -44 121 -76 110 33
-77 -41 -29 -38 127 71 18 0
52 -41 27 -17 10 -46 -59 -64
8 32 -23 -42 15 33 -91 16
53 -107 -39 7 63 -51 -67 7
-68 17 12 -13 26 64 37 27
43 44 -17 9 1 39 -57 11
-27 84 -13 -111 -8 57 67 11
19 97 -1 73 -72 70 93 60
-54 -26 1 -63 -34 1 -29 -38
11 -29 16 9 -23 -64 -22 -44
29 -6 27 13 -28 -95 99 106
126 125 68 90 19 -6 -29 -66
-8 -88 -10 -127 15 58 109 -47
20 8 89 33 -35 -6 37 -50
14 -32 -49 -14 -22 46 -45 -16
55 -19 14 70 -110 92 22 -127
7 11 17 -29 -82 -46 29 -78
6 6 -69 -17 39 -18 95 32
-16 -37 -31 -31 -124 -11 46 -28
-48 4 34 -26 59 -35 -13 64
8 -62 -85 -17 -6 24 46 -63
-48 8 23 9 -15 76 -1 -46
-44 13 -24 -1 55 81 -8 -19
2 127 -29 -21 -41 -15 -16 38
-27 5 53 45 37 23 39 -10
00000000: 4ddd 4d02 5d05 2b2f abe1 c3bb c608 e358
00000010: dd33 ca0e 08bb ecb2 3021 3e36 e7a1 4f7f
00000020: e3c8 a616 18e6 1d34 bea9 a9f2 1fb8 c62d
00000030: 26c0 14d4 79b4 6e21 b3d7 e3da 7f47 1200
00000040: 34d7 1bef 0ad2 c5c0 0820 e9d6 0f21 a510
00000050: 3595 d907 3fcd bd07 bc11 0cf3 1a40 251b
00000060: 2b2c ef09 0127 c70b e554 f391 f839 430b
00000070: 1361 ff49 b846 5d3c cae6 01c1 de01 e3da
00000080: 0be3 1009 e9c0 ead4 1dfa 1b0d e4a1 636a
00000090: 7e7d 445a 13fa e3be f8a8 f681 0f3a 6dd1
000000a0: 1408 5921 ddfa 25ce 0ee0 cff2 ea2e d3f0
000000b0: 37ed 0e46 925c 1681 070b 11e3 aed2 1db2
000000c0: 0606 bbef 27ee 5f20 f0db e1e1 84f5 2ee4
000000d0: d004 22e6 3bdd f340 08c2 abef fa18 2ec1
000000e0: d008 1709 f14c ffd2 d40d e8ff 3751 f8ed
000000f0: 027f e3eb d7f1 f026 e505 352d 2517 27f6

sequential/model/block_13_project/Conv2D i1 [56, 1, 1, 192]
3 -54 72 52 -127 -36 5 0
-41 -14 -6 -21 13 -28 11 -103
48 19 6 81 56 -3 -44 -2
13 43 -5 16 -44 -39 50 0
14 37 39 3 86 46 -54 -43
-27 -34 -54 -87 -53 14 -56 23
10 3 -48 33 0 -46 14 41
4 2 -23 -37 -25 110 -37 1
-21 -21 -30 -4 14 52 26 43
22 -22 31 43 42 -24 -19 -8
85 55 -41 -23 24 8 10 53
52 14 10 -52 22 21 53 3
-21 -43 -63 4 10 44 -15 -23
-29 -12 -33 11 37 22 31 -12
-45 20 19 -19 -5 -14 -1 24
-31 35 12 26 -30 3 -21 24
5 -74 45 -44 3 55 -6 -35
11 -6 -11 73 -40 34 18 30
53 57 1 1 17 28 57 16
-22 9 -5 -14 34 -11 67 3
25 11 -14 4 -16 18 -9 -47
-8 35 -50 10 -54 -14 4 -44
-35 41 24 -3 -33 -20 -2 -6
-44 59 -21 19 6 -72 -13 20
11 -22 11 42 30 -93 27 27
-38 -29 68 5 -11 26 -37 49
51 -27 28 80 53 -5 25 55
-43 67 -30 -33 -41 13 42 -74
-27 -13 -23 -79 -85 29 -46 -22
60 -76 -22 30 -5 -63 52 -22
-40 -86 -57 26 26 -14 2 47
-12 -14 32 -3 -27 -28 -65 -45
00000000: 03ca 4834 81dc 0500 d7f2 faeb 0de4 0b99
00000010: 3013 0651 38fd d4fe 0d2b fb10 d4d9 3200
00000020: 0e25 2703 562e cad5 e5de caa9 cb0e c817
00000030: 0a03 d021 00d2 0e29 0402 e9db e76e db01
00000040: ebeb e2fc 0e34 1a2b 16ea 1f2b 2ae8 edf8
00000050: 5537 d7e9 1808 0a35 340e 0acc 1615 3503
00000060: ebd5 c104 0a2c f1e9 e3f4 df0b 2516 1ff4
00000070: d314 13ed fbf2 ff18 e123 0c1a e203 eb18
00000080: 05b6 2dd4 0337 fadd 0bfa f549 d822 121e
00000090: 3539 0101 111c 3910 ea09 fbf2 22f5 4303
000000a0: 190b f204 f012 f7d1 f823 ce0a caf2 04d4
000000b0: dd29 18fd dfec fefa d43b eb13 06b8 f314
000000c0: 0bea 0b2a 1ea3 1b1b dae3 4405 f51a db31
000000d0: 33e5 1c50 35fb 1937 d543 e2df d70d 2ab6
000000e0: e5f3 e9b1 ab1d d2ea 3cb4 ea1e fbc1 34ea
000000f0: d8aa c71a 1af2 022f f4f2 20fd e5e4 bfd3

sequential/model/block_13_depthwise_BN/FusedBatchNormV3;sequential/model/block_13_depthwise/depthwise i1 [1, 3, 3, 192]
-86 80 106 -65 73 113 -11 -57
-71 82 64 68 80 -84 -100 88
95 -106 -104 81 91 -111 78 87
90 88 78 -94 97 88 105 -79
-104 116 81 123 66 -94 88 -78
62 74 76 82 -92 -96 67 90
99 127 -97 72 -73 -63 102 92
121 91 111 91 90 83 96 30
83 75 84 -99 55 -63 70 79
102 -93 -86 -93 70 -106 75 113
91 105 91 -77 97 -70 -88 1
-80 88 -70 95 97 -75 -93 101
82 93 95 51 64 -90 -6 101
72 119 -50 84 76 -79 -56 83
81 89 -106 92 90 126 -82 89
-72 -66 -73 -101 69 70 -123 -86
-114 108 90 108 110 106 -69 85
-63 -95 81 110 109 -3 -73 -95
36 105 -49 80 127 -106 97 -79
-102 -78 69 74 -108 -104 77 25
-92 109 65 -119 74 -76 114 82
75 82 -82 -120 -101 -57 -56 110
-127 76 79 -86 85 73 -94 95
-91 -59 93 125 -110 100 71 -77
-104 102 127 -78 76 119 -45 -77
-87 97 75 79 93 -101 -101 109
111 -115 -127 99 105 -127 93 101
105 110 86 -101 112 109 109 -101
-114 127 95 127 73 -111 109 104
71 89 91 93 -111 -102 83 107
115 124 -112 90 -72 -85 112 107
-81 104 127 104 104 99 108 32
00000000: aa50 6abf 4971 f5c7 b952 4044 50ac 9c58
00000010: 5f96 9851 5b91 4e57 5a58 4ea2 6158 69b1
00000020: 9874 517b 42a2 58b2 3e4a 4c52 a4a0 435a
00000030: 637f 9f48 b7c1 665c 795b 6f5b 5a53 601e
00000040: 534b 549d 37c1 464f 66a3 aaa3 4696 4b71
00000050: 5b69 5bb3 61ba a801 b058 ba5f 61b5 a365
00000060: 525d 5f33 40a6 fa65 4877 ce54 4cb1 c853
00000070: 5159 965c 5a7e ae59 b8be b79b 4546 85aa
00000080: 8e6c 5a6c 6e6a bb55 c1a1 516e 6dfd b7a1
00000090: 2469 cf50 7f96 61b1 9ab2 454a 9498 4d19
000000a0: a46d 4189 4ab4 7252 4b52 ae88 9bc7 c86e
000000b0: 814c 4faa 5549 a25f a5c5 5d7d 9264 47b3
000000c0: 9866 7fb2 4c77 d3b3 a961 4b4f 5d9b 9b6d
000000d0: 6f8d 8163 6981 5d65 696e 569b 706d 6d9b
000000e0: 8e7f 5f7f 4991 6d68 4759 5b5d 919a 536b
000000f0: 737c 905a b8ab 706b af68 7f68 6863 6c20

sequential/model/block_13_expand/Conv2D i1 [192, 1, 1, 32]
101 9 -13 47 25 10 -47 56
-95 37 25 -60 -4 -13 -72 -1
-21 60 28 -1 24 -25 40 -33
-60 -26 -5 66 62 127 23 -41
48 -34 -121 -4 -26 104 -42 -6
-15 63 78 -24 -52 -11 12 34
46 21 -55 15 25 127 -73 67
-86 42 56 -27 74 -19 -32 45
46 -98 36 53 37 -12 21 -22
-52 -52 18 -78 -48 34 -29 -33
-105 29 -7 -82 49 80 -67 10
-31 62 105 25 -127 -83 20 -42
53 -44 -20 22 64 62 -2 127
-1 40 0 -14 26 38 14 -75
-28 56 -20 -54 -29 42 -53 -1
-1 -11 -2 73 -11 -1 8 23
60 122 -10 19 -44 -45 -63 -5
10 25 49 -22 38 -37 -30 47
59 1 21 115 32 6 16 -9
17 57 -13 27 45 -127 -114 7
30 -127 -65 34 74 -10 -17 45
19 -60 30 -31 30 -71 57 3
97 -12 84 -1 -27 59 41 95
56 45 0 75 14 8 10 -52
36 13 85 10 -35 8 40 21
-80 -25 21 12 -2 0 -22 -21
-37 12 -43 -41 -61 4 26 127
-27 60 11 -57 -31 -52 -23 -57
-4 74 -29 57 125 79 64 -21
25 48 -16 9 0 29 13 -29
32 -24 -11 20 27 -58 11 -12
89 73 67 83 -127 1 -25 -69
00000000: 6509 f32f 190a d138 a125 19c4 fcf3 b8ff
00000010: eb3c 1cff 18e7 28df c4e6 fb42 3e7f 17d7
00000020: 30de 87fc e668 d6fa f13f 4ee8 ccf5 0c22
00000030: 2e15 c90f 197f b743 aa2a 38e5 4aed e02d
00000040: 2e9e 2435 25f4 15ea cccc 12b2 d022 e3df
00000050: 971d f9ae 3150 bd0a e13e 6919 81ad 14d6
00000060: 35d4 ec16 403e fe7f ff28 00f2 1a26 0eb5
00000070: e438 ecca e32a cbff fff5 fe49 f5ff 0817
00000080: 3c7a f613 d4d3 c1fb 0a19 31ea 26db e22f
00000090: 3b01 1573 2006 10f7 1139 f31b 2d81 8e07
000000a0: 1e81 bf22 4af6 ef2d 13c4 1ee1 1eb9 3903
000000b0: 61f4 54ff e53b 295f 382d 004b 0e08 0acc
000000c0: 240d 550a dd08 2815 b0e7 150c fe00 eaeb
000000d0: db0c d5d7 c304 1a7f e53c 0bc7 e1cc e9c7
000000e0: fc4a e339 7d4f 40eb 1930 f009 001d 0de3
000000f0: 20e8 f514 1bc6 0bf4 5949 4353 8101 e7bb

sequential/model/block_12_project/Conv2D i1 [32, 1, 1, 192]
-4 20 53 49 24 -55 -66 13
-6 0 -26 93 -99 29 55 55
-24 43 -6 -92 14 18 -34 -35
0 -11 -64 30 16 20 18 4
-1 30 75 73 -9 74 31 1
2 -8 21 18 4 -66 27 39
77 1 16 -9 55 12 -11 18
-28 6 52 -34 8 39 -46 27
6 69 70 -28 40 5 2 -66
-74 91 -19 47 -25 45 19 55
54 -3 30 -10 9 -84 -14 55
-36 -49 -59 31 16 -2 32 45
19 -44 -3 13 -14 -19 5 41
-22 -17 12 52 39 -42 -13 11
-23 -21 7 54 28 -1 -79 48
-14 -7 67 6 -2 -37 -3 61
-31 26 -49 -112 15 28 -1 9
-40 -27 -34 37 -46 -23 -16 -37
-17 -59 6 -34 18 -19 16 -54
40 34 6 -51 -28 76 -7 -32
-14 -17 43 -13 1 37 48 -21
6 27 -55 16 45 21 -127 3
-26 -43 -39 -14 31 -22 47 1
-58 23 -4 25 -43 15 13 -29
53 -58 -34 -83 -52 -18 4 -2
33 -46 -32 6 19 -9 -9 -23
-12 -80 -11 84 11 56 12 -17
-8 78 3 -25 56 10 27 70
37 -15 -9 -37 -37 -38 -33 32
9 -84 1 33 17 -14 33 61
42 -45 -37 39 -23 30 -85 -9
4 -18 -2 57 -39 51 40 -30
00000000: fc14 3531 18c9 be0d fa00 e65d 9d1d 3737
00000010: e82b faa4 0e12 dedd 00f5 c01e 1014 1204
00000020: ff1e 4b49 f74a 1f01 02f8 1512 04be 1b27
00000030: 4d01 10f7 370c f512 e406 34de 0827 d21b
00000040: 0645 46e4 2805 02be b65b ed2f e72d 1337
00000050: 36fd 1ef6 09ac f237 dccf c51f 10fe 202d
00000060: 13d4 fd0d f2ed 0529 eaef 0c34 27d6 f30b
00000070: e9eb 0736 1cff b130 f2f9 4306 fedb fd3d
00000080: e11a cf90 0f1c ff09 d8e5 de25 d2e9 f0db
00000090: efc5 06de 12ed 10ca 2822 06cd e44c f9e0
000000a0: f2ef 2bf3 0125 30eb 061b c910 2d15 8103
000000b0: e6d5 d9f2 1fea 2f01 c617 fc19 d50f 0de3
000000c0: 35c6 dead ccee 04fe 21d2 e006 13f7 f7e9
000000d0: f4b0 f554 0b38 0cef f84e 03e7 380a 1b46
000000e0: 25f1 f7db dbda df20 09ac 0121 11f2 213d
000000f0: 2ad3 db27 e91e abf7 04ee fe39 d933 28e2

sequential/model/block_12_depthwise_BN/FusedBatchNormV3;sequential/model/block_12_depthwise/depthwise;sequential/model/block_13_depthwise/depthwise i1 [1, 3, 3, 192]
77 -1 36 -2 -65 20 15 -30
24 -8 -6 -15 -22 -127 -19 38
-43 6 -1 4 22 -23 -13 34
-127 29 -2 -42 14 116 -79 -23
29 127 27 -52 -74 19 2 127
-7 53 3 8 38 4 2 -73
-14 -27 -40 -127 31 -122 -84 45
51 13 38 -48 95 63 -92 -24
50 -21 -26 -73 -127 38 -14 -54
2 21 -7 -46 17 -17 -62 -96
16 46 -27 20 -119 -13 47 15
-55 -20 -5 91 -4 -13 8 -74
16 -4 -127 50 11 -113 -89 -1
28 -57 14 28 20 -3 -14 -127
-72 -39 -78 -14 -34 0 -11 37
13 5 4 -30 30 2 8 -68
-65 -1 40 -5 32 6 -127 43
17 -46 -29 -62 -83 50 -5 -30
-19 -8 59 -25 -81 113 83 49
-31 -5 127 29 19 -18 -96 -33
36 13 22 -9 -23 31 39 -71
-16 57 48 -1 -14 43 -3 44
24 0 33 -40 13 10 -11 -98
7 5 39 -23 81 -5 -77 1
56 127 -82 -35 -62 84 36 127
127 127 127 21 34 -118 -56 33
-22 -113 15 28 54 57 -127 122
-117 111 -96 -121 111 44 -57 -10
-37 88 59 28 -29 127 75 12
-92 -127 -66 30 123 2 81 -127
-98 -83 -13 -53 127 -39 -127 -57
47 101 127 -127 65 -102 -60 -77
00000000: 4dff 24fe bf14 0fe2 18f8 faf1 ea81 ed26
00000010: d506 ff04 16e9 f322 811d fed6 0e74 b1e9
00000020: 1d7f 1bcc b613 027f f935 0308 2604 02b7
00000030: f2e5 d881 1f86 ac2d 330d 26d0 5f3f a4e8
00000040: 32eb e6b7 8126 f2ca 0215 f9d2 11ef c2a0
00000050: 102e e514 89f3 2f0f c9ec fb5b fcf3 08b6
00000060: 10fc 8132 0b8f a7ff 1cc7 0e1c 14fd f281
00000070: b8d9 b2f2 de00 f525 0d05 04e2 1e02 08bc
00000080: bfff 28fb 2006 812b 11d2 e3c2 ad32 fbe2
00000090: edf8 3be7 af71 5331 e1fb 7f1d 13ee a0df
000000a0: 240d 16f7 e91f 27b9 f039 30ff f22b fd2c
000000b0: 1800 21d8 0d0a f59e 0705 27e9 51fb b301
000000c0: 387f aedd c254 247f 7f7f 7f15 228a c821
000000d0: ea8f 0f1c 3639 817a 8b6f a087 6f2c c7f6
000000e0: db58 3b1c e37f 4b0c a481 be1e 7b02 5181
000000f0: 9ead f3cb 7fd9 81c7 2f65 7f81 419a c4b3

sequential/model/block_12_expand/Conv2D i1 [192, 1, 1, 32]
-43 59 127 -12 -25 109 -34 26
94 -33 30 20 46 80 37 21
11 -72 12 -46 -58 -82 -41 -43
-6 -14 -13 -95 -40 28 -2 -6
-53 53 -20 76 31 7 23 62
-17 -23 -2 32 103 16 20 -54
2 127 -77 -44 -40 27 -94 -25
-8 -122 86 15 36 -76 25 -69
-119 70 -26 20 74 -81 70 -115
-58 62 -48 16 80 20 8 105
-11 -103 8 86 88 -45 75 -31
86 75 -59 -108 -111 127 29 -95
64 31 -9 30 41 -31 -79 57
93 -1 55 12 3 -13 -66 25
-15 -19 74 127 35 89 28 -41
21 18 92 79 19 -62 -63 -100
13 -74 84 -98 -27 14 67 75
17 -45 -31 -31 -127 -4 29 -89
10 4 17 25 35 69 59 -15
-27 -43 9 114 25 107 -17 32
93 -1 18 6 -35 -112 84 -18
-2 69 35 -20 -39 -44 59 37
-2 97 24 22 37 -28 33 -30
31 -71 51 -127 2 -15 -48 8
98 2 50 -3 -59 -127 86 -27
16 63 -50 38 10 53 -4 -79
39 -76 17 -9 -37 -11 -109 -6
-52 120 -41 -63 -7 -64 15 -12
19 -4 19 -24 87 46 18 33
-37 73 -23 -15 45 -10 9 10
5 15 -43 -29 23 6 79 33
21 -66 2 127 -5 -38 -10 20
00000000: d53b 7ff4 e76d de1a 5edf 1e14 2e50 2515
00000010: 0bb8 0cd2 c6ae d7d5 faf2 f3a1 d81c fefa
00000020: cb35 ec4c 1f07 173e efe9 fe20 6710 14ca
00000030: 027f b3d4 d81b a2e7 f886 560f 24b4 19bb
00000040: 8946 e614 4aaf 468d c63e d010 5014 0869
00000050: f599 0856 58d3 4be1 564b c594 917f 1da1
00000060: 401f f71e 29e1 b139 5dff 370c 03f3 be19
00000070: f1ed 4a7f 2359 1cd7 1512 5c4f 13c2 c19c
00000080: 0db6 549e e50e 434b 11d3 e1e1 81fc 1da7
00000090: 0a04 1119 2345 3bf1 e5d5 0972 196b ef20
000000a0: 5dff 1206 dd90 54ee fe45 23ec d9d4 3b25
000000b0: fe61 1816 25e4 21e2 1fb9 3381 02f1 d008
000000c0: 6202 32fd c581 56e5 103f ce26 0a35 fcb1
000000d0: 27b4 11f7 dbf5 93fa cc78 d7c1 f9c0 0ff4
000000e0: 13fc 13e8 572e 1221 db49 e9f1 2df6 090a
000000f0: 050f d5e3 1706 4f21 15be 027f fbda f614

sequential/model/block_11_project/Conv2D i1 [32, 1, 1, 192]
-86 -9 -13 4 -45 -1 34 23
-24 -85 33 -26 65 14 -6 51
-127 -13 2 -30 -59 -4 9 7
-24 10 74 41 30 -7 -56 1
6 -26 -58 7 -42 34 -4 127
-11 -51 7 -5 -18 5 -57 -47
2 -57 33 85 80 76 34 -5
11 -4 19 -34 -30 52 34 -32
-2 81 23 50 -19 29 13 31
16 -66 9 -27 60 -14 36 -26
-40 12 1 14 41 83 -55 7
70 -26 -31 -31 70 1 -43 -16
44 -30 2 -5 8 2 95 45
11 11 -24 -50 -59 55 44 -22
-10 -28 -9 5 9 -20 31 -8
5 -59 53 41 -4 11 5 44
-16 27 -8 -41 32 -22 75 -41
100 -45 -51 36 28 31 -25 -9
-38 -75 -71 48 10 -54 41 -37
25 18 -2 -34 -96 35 -21 -3
-23 -2 -24 27 -14 -83 27 -33
-7 -16 -6 -49 49 -19 13 64
63 3 74 -12 32 -73 64 11
23 -25 51 32 -44 54 23 15
-13 19 -6 -8 4 63 20 -73
-18 -92 6 -63 -70 23 -44 -10
-66 59 24 29 22 22 31 27
30 2 22 -65 -8 34 24 38
-67 -88 83 13 29 7 13 1
-73 -24 83 24 18 -1 41 -52
-48 70 -45 -6 -52 -22 43 -8
-18 47 28 -11 -30 84 -69 48
00000000: aaf7 f304 d3ff 2217 e8ab 21e6 410e fa33
00000010: 81f3 02e2 c5fc 0907 e80a 4a29 1ef9 c801
00000020: 06e6 c607 d622 fc7f f5cd 07fb ee05 c7d1
00000030: 02c7 2155 504c 22fb 0bfc 13de e234 22e0
00000040: fe51 1732 ed1d 0d1f 10be 09e5 3cf2 24e6
00000050: d80c 010e 2953 c907 46e6 e1e1 4601 d5f0
00000060: 2ce2 02fb 0802 5f2d 0b0b e8ce c537 2cea
00000070: f6e4 f705 09ec 1ff8 05c5 3529 fc0b 052c
00000080: f01b f8d7 20ea 4bd7 64d3 cd24 1c1f e7f7
00000090: dab5 b930 0aca 29db 1912 fede a023 ebfd
000000a0: e9fe e81b f2ad 1bdf f9f0 facf 31ed 0d40
000000b0: 3f03 4af4 20b7 400b 17e7 3320 d436 170f
000000c0: f313 faf8 043f 14b7 eea4 06c1 ba17 d4f6
000000d0: be3b 181d 1616 1f1b 1e02 16bf f822 1826
000000e0: bda8 530d 1d07 0d01 b7e8 5318 12ff 29cc
000000f0: d046 d3fa ccea 2bf8 ee2f 1cf5 e254 bb30

sequential/model/block_11_depthwise_BN/FusedBatchNormV3;sequential/model/block_11_depthwise/depthwise;sequential/model/block_13_depthwise/depthwise i1 [1, 3, 3, 192]
-20 -6 66 53 -21 107 25 -90
-12 -10 20 -1 14 36 48 -59
6 -15 44 7 2 -3 27 -49
-25 46 -42 -66 36 43 46 18
-12 60 -2 3 -79 -48 7 9
-12 -1 54 16 67 -5 3 -50
48 39 7 27 -42 -24 60 -118
-2 -12 -3 -39 -107 -8 19 24
-42 -8 10 18 4 34 -94 60
22 -6 -62 34 -51 -2 12 36
-59 -11 -6 19 13 -96 37 -48
-21 -6 -26 4 -4 -17 63 -14
19 60 -44 9 -11 -51 21 -19
-58 11 -77 33 -51 0 -9 -8
27 6 -21 -7 -4 -7 -32 -9
-71 -3 -114 -51 -88 -119 -127 -12
-40 21 18 34 -44 58 14 -19
-24 -12 46 -66 6 -120 17 -96
19 -45 17 -23 68 -20 12 -23
15 -8 -34 4 12 15 -24 -24
3 19 36 -17 4 -28 -66 14
7 -48 13 32 3 34 49 -19
-52 12 -24 -95 47 -26 45 -22
-20 10 -27 -76 11 -29 9 -6
-127 80 127 127 -74 107 52 -108
41 -125 3 -127 30 127 127 -99
77 -127 -59 -11 91 33 83 -127
89 125 -21 -45 112 127 12 127
-17 -66 9 65 -127 67 29 4
-35 55 -127 20 74 25 28 -13
-17 92 -38 127 -85 -5 75 -127
39 13 -42 -127 28 127 26 -12
00000000: ecfa 4235 eb6b 19a6 f4f6 14ff 0e24 30c5
00000010: 06f1 2c07 02fd 1bcf e72e d6be 242b 2e12
00000020: f43c fe03 b1d0 0709 f4ff 3610 43fb 03ce
00000030: 3027 071b d6e8 3c8a fef4 fdd9 95f8 1318
00000040: d6f8 0a12 0422 a23c 16fa c222 cdfe 0c24
00000050: c5f5 fa13 0da0 25d0 ebfa e604 fcef 3ff2
00000060: 133c d409 f5cd 15ed c60b b321 cd00 f7f8
00000070: 1b06 ebf9 fcf9 e0f7 b9fd 8ecd a889 81f4
00000080: d815 1222 d43a 0eed e8f4 2ebe 0688 11a0
00000090: 13d3 11e9 44ec 0ce9 0ff8 de04 0c0f e8e8
000000a0: 0313 24ef 04e4 be0e 07d0 0d20 0322 31ed
000000b0: cc0c e8a1 2fe6 2dea ec0a e5b4 0be3 09fa
000000c0: 8150 7f7f b66b 3494 2983 0381 1e7f 7f9d
000000d0: 4d81 c5f5 5b21 5381 597d ebd3 707f 0c7f
000000e0: efbe 0941 8143 1d04 dd37 8114 4a19 1cf3
000000f0: ef5c da7f abfb 4b81 270d d681 1c7f 1af4

sequential/model/block_11_expand/Conv2D i1 [192, 1, 1, 32]
127 58 -34 22 -6 -39 -7 -122
-96 50 52 -62 37 20 -1 22
-4 7 -30 -36 -46 -91 -14 -72
-108 8 -40 87 92 -47 42 7
-86 21 -43 -43 33 96 36 -21
21 61 -11 -2 -94 -48 -35 -109
-127 -88 20 11 -16 33 -79 33
-97 62 -105 -9 30 -16 7 -53
-127 -11 13 56 35 14 -42 -37
41 42 -44 9 25 13 66 -88
32 93 -88 -2 -44 -36 -103 -1
38 -51 34 -57 -16 44 -58 -41
11 42 -22 -117 -35 -2 59 -35
-84 -59 -82 -7 32 -19 81 127
10 -48 -29 -64 -38 -90 70 88
25 -50 69 5 34 -4 10 50
-10 13 -40 -18 -5 102 -92 6
-10 7 -21 3 16 66 17 2
33 -35 -30 -127 -5 -97 11 -81
-16 94 25 -49 -62 32 24 -39
127 -37 60 119 102 32 -54 -57
35 -45 30 80 -80 -103 -43 -35
7 -4 67 27 49 -7 -4 -77
-55 16 57 -6 9 -27 52 -36
10 15 66 -48 -19 45 -23 6
-127 80 -70 38 10 -16 14 38
33 -8 12 40 -96 14 2 26
-28 -24 16 -13 120 52 -47 -26
-27 -65 70 -41 21 -42 -29 26
28 -79 36 1 -20 -71 -83 -40
-24 -12 -11 12 -71 32 21 106
46 127 -19 -73 -50 2 -36 75
00000000: 7f3a de16 fad9 f986 a032 34c2 2514 ff16
00000010: fc07 e2dc d2a5 f2b8 9408 d857 5cd1 2a07
00000020: aa15 d5d5 2160 24eb 153d f5fe a2d0 dd93
00000030: 81a8 140b f021 b121 9f3e 97f7 1ef0 07cb
00000040: 81f5 0d38 230e d6db 292a d409 190d 42a8
00000050: 205d a8fe d4dc 99ff 26cd 22c7 f02c c6d7
00000060: 0b2a ea8b ddfe 3bdd acc5 aef9 20ed 517f
00000070: 0ad0 e3c0 daa6 4658 19ce 4505 22fc 0a32
00000080: f60d d8ee fb66 a406 f607 eb03 1042 1102
00000090: 21dd e281 fb9f 0baf f05e 19cf c220 18d9
000000a0: 7fdb 3c77 6620 cac7 23d3 1e50 b099 d5dd
000000b0: 07fc 431b 31f9 fcb3 c910 39fa 09e5 34dc
000000c0: 0a0f 42d0 ed2d e906 8150 ba26 0af0 0e26
000000d0: 21f8 0c28 a00e 021a e4e8 10f3 7834 d1e6
000000e0: e5bf 46d7 15d6 e31a 1cb1 2401 ecb9 add8
000000f0: e8f4 f50c b920 156a 2e7f edb7 ce02 dc4b

sequential/model/block_10_project/Conv2D i1 [32, 1, 1, 144]
2 25 35 -8 40 -6 19 59
11 17 -41 -20 -44 59 10 17
-83 -57 86 -8 63 20 -17 2
38 -3 12 127 -51 22 35 -67
-10 -1 -26 78 4 -60 -43 26
11 -46 -25 -17 113 -49 -42 6
9 97 95 33 -94 -5 -52 -71
25 -30 7 -20 -27 65 5 -29
51 -98 -32 -11 -71 99 -24 117
52 126 -10 23 43 -23 -1 2
-1 -13 23 -92 -19 3 21 -54
73 -25 75 46 77 -59 -47 38
-74 25 -8 45 13 37 5 7
-43 -55 24 -1 -5 -8 -42 -64
-64 -16 -108 -56 101 54 -10 -72
45 -69 4 39 24 -5 6 -1
-4 18 -34 -35 -11 3 85 -27
27 -5 -45 63 2 52 20 -14
-37 4 -4 4 14 17 47 -59
30 -14 56 4 -62 -34 -50 -19
-33 -98 -47 106 26 -47 -36 9
-21 -30 58 -24 -75 -2 -26 -4
-50 -127 -25 -24 45 76 4 57
-21 4 8 117 -15 25 -116 -5
69 -35 62 -14 0 -26 13 15
10 30 -64 16 -35 -48 35 51
11 -47 56 -33 67 73 44 -2
59 4 29 -13 -71 68 -3 9
-3 27 -69 -19 -24 -46 63 -74
-88 -13 -9 69 -19 0 69 -24
-91 48 38 -40 -15 -19 -22 -17
18 -26 -30 8 46 24 34 -56
00000000: 0219 23f8 28fa 133b 0b11 d7ec d43b 0a11
00000010: adc7 56f8 3f14 ef02 26fd 0c7f cd16 23bd
00000020: f6ff e64e 04c4 d51a 0bd2 e7ef 71cf d606
00000030: 0961 5f21 a2fb ccb9 19e2 07ec e541 05e3
00000040: 339e e0f5 b963 e875 347e f617 2be9 ff02
00000050: fff3 17a4 ed03 15ca 49e7 4b2e 4dc5 d126
00000060: b619 f82d 0d25 0507 d5c9 18ff fbf8 d6c0
00000070: c0f0 94c8 6536 f6b8 2dbb 0427 18fb 06ff
00000080: fc12 dedd f503 55e5 1bfb d33f 0234 14f2
00000090: db04 fc04 0e11 2fc5 1ef2 3804 c2de ceed
000000a0: df9e d16a 1ad1 dc09 ebe2 3ae8 b5fe e6fc
000000b0: ce81 e7e8 2d4c 0439 eb04 0875 f119 8cfb
000000c0: 45dd 3ef2 00e6 0d0f 0a1e c010 ddd0 2333
000000d0: 0bd1 38df 4349 2cfe 3b04 1df3 b944 fd09
000000e0: fd1b bbed e8d2 3fb6 a8f3 f745 ed00 45e8
000000f0: a530 26d8 f1ed eaef 12e6 e208 2e18 22c8

sequential/model/block_10_depthwise_BN/FusedBatchNormV3;sequential/model/block_10_depthwise/depthwise i1 [1, 3, 3, 144]
24 75 -102 -64 -2 -25 -3 2
-15 4 2 -1 6 -5 -40 73
6 -63 6 0 2 -5 -42 -22
3 0 -7 2 20 9 -11 13
1 2 6 0 -38 10 13 -43
-75 -59 -47 7 -22 2 11 7
8 5 7 -127 15 -46 42 27
6 4 -95 -22 1 -47 12 24
35 3 -92 -50 11 2 37 -1
41 6 -61 7 5 15 -74 -36
1 30 -1 22 -78 -62 25 -36
6 16 4 12 28 44 14 9
0 11 -4 0 27 0 -1 -65
14 -15 13 12 11 -53 -109 6
-27 28 9 -41 2 1 8 7
1 10 -5 6 8 -4 -79 1
37 -104 16 1 -1 1 7 0
-87 12 27 -63 -1 12 4 2
34 127 -127 -127 49 -28 4 27
-127 15 1 35 29 -12 -61 68
4 -89 13 2 -56 -23 -127 -56
24 14 19 7 21 42 -30 30
19 36 -26 22 -21 19 -60 -68
-86 -126 -70 -3 -48 -26 20 -95
-42 54 10 -125 15 4 71 10
78 -24 -96 -44 -39 -127 33 64
127 15 -127 -66 -5 5 -105 -10
20 19 -112 40 8 56 -68 -81
-109 127 -26 19 -102 6 23 12
38 20 -11 16 0 54 21 -127
7 27 -8 10 127 0 13 47
52 -60 53 35 -11 -127 109 -3
00000000: 184b 9ac0 fee7 fd02 f104 02ff 06fb d849
00000010: 06c1 0600 02fb d6ea 0300 f902 1409 f50d
00000020: 0102 0600 da0a 0dd5 b5c5 d107 ea02 0b07
00000030: 0805 0781 0fd2 2a1b 0604 a1ea 01d1 0c18
00000040: 2303 a4ce 0b02 25ff 2906 c307 050f b6dc
00000050: 011e ff16 b2c2 19dc 0610 040c 1c2c 0e09
00000060: 000b fc00 1b00 ffbf 0ef1 0d0c 0bcb 9306
00000070: e51c 09d7 0201 0807 010a fb06 08fc b101
00000080: 2598 1001 ff01 0700 a90c 1bc1 ff0c 0402
00000090: 227f 8181 31e4 041b 810f 0123 1df4 c344
000000a0: 04a7 0d02 c8e9 81c8 180e 1307 152a e21e
000000b0: 1324 e616 eb13 c4bc aa82 bafd d0e6 14a1
000000c0: d636 0a83 0f04 470a 4ee8 a0d4 d981 2140
000000d0: 7f0f 81be fb05 97f6 1413 9028 0838 bcaf
000000e0: 937f e613 9a06 170c 2614 f510 0036 1581
000000f0: 071b f80a 7f00 0d2f 34c4 3523 f581 6dfd

sequential/model/block_10_expand/Conv2D i1 [144, 1, 1, 24]
0 -22 28 -78 68 95 -59 -8
50 24 -116 2 6 90 16 31
53 127 22 68 -21 -29 2 74
14 76 64 98 -14 -96 -75 58
-2 -23 -120 127 101 1 25 -121
-37 80 -48 3 6 42 -63 -76
35 127 84 52 -6 -53 67 32
-2 -27 -79 18 -30 -43 -18 -48
16 18 -73 -60 40 -84 -24 -23
13 -72 -33 127 -8 14 46 125
55 24 14 -1 -59 -86 31 87
-21 -110 1 -12 4 39 112 -11
-127 26 19 17 32 -46 26 -96
20 -16 26 94 36 -81 -79 76
-53 20 -8 4 92 -7 -46 -60
19 57 -59 -30 -59 -50 -27 -5
71 -67 -33 6 -37 31 103 -23
-64 88 12 77 -116 10 -8 -127
71 108 10 -40 88 -2 31 109
1 60 -37 -51 100 -101 127 -11
-61 -36 39 -48 42 -41 -37 79
64 -21 68 -10 21 -104 24 -47
-6 -19 21 -60 0 -22 73 40
-127 27 45 54 -81 -45 26 49
1 51 88 -16 83 -105 -60 -63
-107 -75 -11 37 -80 -20 116 84
104 83 53 127 -15 -43 86 -52
-89 12 28 -127 86 -24 14 -3
17 36 54 3 61 -45 -4 117
5 -46 119 27 -25 22 -75 54
81 11 -40 -16 10 -23 -41 47
6 57 -41 10 2 -107 -127 97
00000000: 00ea 1cb2 445f c5f8 3218 8c02 065a 101f
00000010: 357f 1644 ebe3 024a 0e4c 4062 f2a0 b53a
00000020: fee9 887f 6501 1987 db50 d003 062a c1b4
00000030: 237f 5434 facb 4320 fee5 b112 e2d5 eed0
00000040: 1012 b7c4 28ac e8e9 0db8 df7f f80e 2e7d
00000050: 3718 0eff c5aa 1f57 eb92 01f4 0427 70f5
00000060: 811a 1311 20d2 1aa0 14f0 1a5e 24af b14c
00000070: cb14 f804 5cf9 d2c4 1339 c5e2 c5ce e5fb
00000080: 47bd df06 db1f 67e9 c058 0c4d 8c0a f881
00000090: 476c 0ad8 58fe 1f6d 013c dbcd 649b 7ff5
000000a0: c3dc 27d0 2ad7 db4f 40eb 44f6 1598 18d1
000000b0: faed 15c4 00ea 4928 811b 2d36 afd3 1a31
000000c0: 0133 58f0 5397 c4c1 95b5 f525 b0ec 7454
000000d0: 6853 357f f1d5 56cc a70c 1c81 56e8 0efd
000000e0: 1124 3603 3dd3 fc75 05d2 771b e716 b536
000000f0: 510b d8f0 0ae9 d72f 0639 d70a 0295 8161

sequential/model/block_9_project/Conv2D i1 [24, 1, 1, 144]
-3 -96 104 78 122 -8 125 -69
-16 -36 4 0 122 17 106 -35
-46 27 92 -64 -13 55 51 -67
-16 29 67 -47 64 -37 127 -27
-8 60 6 -65 -8 81 -7 33
100 5 35 14 16 -113 -20 42
-2 47 108 102 98 -27 81 -37
-13 4 -58 14 33 -10 52 -16
-7 66 42 -44 5 13 78 -9
-33 23 29 -96 -8 31 83 12
-46 -44 30 -48 -10 -20 1 -36
58 -65 -19 75 39 45 45 11
101 26 -19 68 -6 45 -61 9
49 23 35 24 -46 -43 22 -6
4 16 -45 -30 -14 -44 -51 28
24 -56 47 3 21 34 7 0
5 -3 -44 -8 -36 20 -57 51
-24 -8 -45 -86 0 57 -17 30
-36 7 21 15 -66 24 6 13
3 -55 16 44 -24 -23 11 2
44 -65 -22 83 30 8 61 -78
-7 9 -67 4 -49 -11 47 58
-29 12 50 -21 -5 -9 4 67
-10 45 20 14 -81 10 -30 0
75 -45 -45 35 8 1 -44 0
-18 24 6 -24 39 -27 45 20
-75 -21 -4 62 -127 63 25 -68
46 -29 31 59 5 -32 -36 -25
84 -64 -14 -43 -39 -71 23 -1
54 -16 -12 -11 -18 52 6 -13
-51 -26 6 -5 0 -6 61 75
-69 -10 42 -57 -45 17 -25 5
00000000: fda0 684e 7af8 7dbb f0dc 0400 7a11 6add
00000010: d21b 5cc0 f337 33bd f01d 43d1 40db 7fe5
00000020: f83c 06bf f851 f921 6405 230e 108f ec2a
00000030: fe2f 6c66 62e5 51db f304 c60e 21f6 34f0
00000040: f942 2ad4 050d 4ef7 df17 1da0 f81f 530c
00000050: d2d4 1ed0 f6ec 01dc 3abf ed4b 272d 2d0b
00000060: 651a ed44 fa2d c309 3117 2318 d2d5 16fa
00000070: 0410 d3e2 f2d4 cd1c 18c8 2f03 1522 0700
00000080: 05fd d4f8 dc14 c733 e8f8 d3aa 0039 ef1e
00000090: dc07 150f be18 060d 03c9 102c e8e9 0b02
000000a0: 2cbf ea53 1e08 3db2 f909 bd04 cff5 2f3a
000000b0: e30c 32eb fbf7 0443 f62d 140e af0a e200
000000c0: 4bd3 d323 0801 d400 ee18 06e8 27e5 2d14
000000d0: b5eb fc3e 813f 19bc 2ee3 1f3b 05e0 dce7
000000e0: 54c0 f2d5 d9b9 17ff 36f0 f4f5 ee34 06f3
000000f0: cde6 06fb 00fa 3d4b bbf6 2ac7 d311 e705

sequential/model/block_9_depthwise_BN/FusedBatchNormV3;sequential/model/block_9_depthwise/depthwise;sequential/model/block_10_depthwise/depthwise i1 [1, 3, 3, 144]
-127 -6 -2 11 -3 -11 24 15
17 -127 -65 -56 41 -27 -56 34
-127 13 55 -2 -43 1 -101 -109
46 51 18 -108 1 -78 62 6
23 -45 -113 -3 -30 -49 -127 -42
21 -79 -70 -127 16 22 19 -19
19 45 86 -44 -3 34 -55 -34
-36 -10 -79 -14 -2 -46 -105 -86
-13 -33 -20 -41 -7 23 17 0
-47 18 -23 -120 -9 5 -6 -22
-4 4 1 21 12 -39 -1 -19
-8 70 -37 -33 -36 -6 -7 -12
21 30 3 -63 -66 74 17 -37
14 16 -1 -9 -66 4 13 63
-30 39 -69 5 -36 27 1 6
9 3 -19 -41 -32 18 9 7
22 -14 8 -7 -127 -55 4 -118
-37 16 6 5 -48 -35 31 111
-13 127 39 -42 -127 -84 -90 127
-88 -106 39 -22 127 -7 -70 -127
-38 93 -28 127 6 -127 -105 -74
74 24 21 -84 19 -127 20 -44
1 -74 -61 -79 28 -39 -57 -100
-127 -23 2 -126 17 36 -78 107
4 14 124 -83 -27 20 -84 68
-97 -15 -31 79 -10 -7 -113 -79
10 -90 24 -89 116 120 -106 -9
-74 7 -41 -46 -65 80 59 98
-127 27 -1 15 56 50 127 25
-15 127 -27 24 9 67 127 -42
8 -36 47 -127 -127 127 -88 95
45 9 -14 127 -30 11 106 55
00000000: 81fa fe0b fdf5 180f 1181 bfc8 29e5 c822
00000010: 810d 37fe d501 9b93 2e33 1294 01b2 3e06
00000020: 17d3 8ffd e2cf 81d6 15b1 ba81 1016 13ed
00000030: 132d 56d4 fd22 c9de dcf6 b1f2 fed2 97aa
00000040: f3df ecd7 f917 1100 d112 e988 f705 faea
00000050: fc04 0115 0cd9 ffed f846 dbdf dcfa f9f4
00000060: 151e 03c1 be4a 11db 0e10 fff7 be04 0d3f
00000070: e227 bb05 dc1b 0106 0903 edd7 e012 0907
00000080: 16f2 08f9 81c9 048a db10 0605 d0dd 1f6f
00000090: f37f 27d6 81ac a67f a896 27ea 7ff9 ba81
000000a0: da5d e47f 0681 97b6 4a18 15ac 1381 14d4
000000b0: 01b6 c3b1 1cd9 c79c 81e9 0282 1124 b26b
000000c0: 040e 7cad e514 ac44 9ff1 e14f f6f9 8fb1
000000d0: 0aa6 18a7 7478 96f7 b607 d7d2 bf50 3b62
000000e0: 811b ff0f 3832 7f19 f17f e518 0943 7fd6
000000f0: 08dc 2f81 817f a85f 2d09 f27f e20b 6a37

sequential/model/block_9_expand/Conv2D i1 [144, 1, 1, 24]
107 51 -49 -51 -94 -14 0 10
15 -17 18 -127 29 -18 -87 -20
32 -56 1 115 -7 -31 -66 40
-10 55 -71 -70 -35 -29 55 -9
14 -60 52 90 114 25 -35 34
-10 -22 127 -65 -64 7 75 -40
-111 -16 -2 -104 -21 51 74 -50
26 -115 127 3 -3 69 -22 -21
45 -47 -16 -119 -90 21 25 60
-6 1 -19 43 -30 93 70 52
-8 115 -15 51 43 -51 55 -40
-17 -80 55 33 10 127 36 -32
21 -102 127 -5 -35 9 -16 45
-86 -41 -10 -14 73 75 75 -46
59 39 -107 -85 -42 37 -65 -27
-42 82 -72 -49 -71 118 -5 53
27 -17 -67 8 66 -26 127 -117
94 -33 16 -16 -37 -35 -53 10
57 -127 -112 -50 71 -69 -31 -56
-7 104 -8 -48 15 90 -33 -104
-54 -1 72 -10 -34 -59 54 83
72 -69 36 8 49 1 -73 -69
-66 13 61 -120 -56 127 -36 28
-1 1 -113 34 14 52 34 9
34 -42 -7 4 27 25 78 -62
-24 41 28 -23 -43 58 -42 19
-60 5 -101 -74 -127 19 12 27
42 -60 28 -27 -11 -29 -1 -12
1 52 16 -49 -52 -127 9 75
-49 4 22 66 -5 -41 67 68
-52 6 -60 66 -46 127 70 -25
-43 52 70 20 70 -65 -17 89
00000000: 6b33 cfcd a2f2 000a 0fef 1281 1dee a9ec
00000010: 20c8 0173 f9e1 be28 f637 b9ba dde3 37f7
00000020: 0ec4 345a 7219 dd22 f6ea 7fbf c007 4bd8
00000030: 91f0 fe98 eb33 4ace 1a8d 7f03 fd45 eaeb
00000040: 2dd1 f089 a615 193c fa01 ed2b e25d 4634
00000050: f873 f133 2bcd 37d8 efb0 3721 0a7f 24e0
00000060: 159a 7ffb dd09 f02d aad7 f6f2 494b 4bd2
00000070: 3b27 95ab d625 bfe5 d652 b8cf b976 fb35
00000080: 1bef bd08 42e6 7f8b 5edf 10f0 dbdd cb0a
00000090: 3981 90ce 47bb e1c8 f968 f8d0 0f5a df98
000000a0: caff 48f6 dec5 3653 48bb 2408 3101 b7bb
000000b0: be0d 3d88 c87f dc1c ff01 8f22 0e34 2209
000000c0: 22d6 f904 1b19 4ec2 e829 1ce9 d53a d613
000000d0: c405 9bb6 8113 0c1b 2ac4 1ce5 f5e3 fff4
000000e0: 0134 10cf cc81 094b cf04 1642 fbd7 4344
000000f0: cc06 c442 d27f 46e7 d534 4614 46bf ef59
